models/voice_classifier.pth (torch, 705403 bytes, 24 tensors)

conv1.weight f4 [64, 40, 3]
000000 db 09 12 3c b6 63 f0 3b b5 15 10 3c c3 c6 45 3d
       0.008913483 0.007336105 0.008794238 0.048285257
000010 77 66 8d bc f0 07 8b 3d d1 aa 26 bc b8 9f 7a bd
       -0.017260773 0.06788623 -0.010172562 -0.061187476
000020 fe 60 8e bd 7a ce 61 3c 87 aa 22 bc f7 40 38 bd
       -0.069520935 0.013782138 -0.009928352 -0.04498383
000030 df f5 96 3c 39 34 7c 3d f9 a6 23 bd 65 03 91 3b
       0.018427787 0.06157324 -0.03995416 0.0044254535
000040 9d bc 86 bd 8f 03 58 bc 71 20 a1 bd 1e 7b 7f bb
       -0.06578944 -0.013184442 -0.07867516 -0.0038983296
000050 9a 7b 91 3d 8c 01 cf 3c aa a1 d6 bc c2 46 4f 3c
       0.07103653 0.025269292 -0.026200134 0.012651147
000060 8e b6 60 3d 79 6a a3 3c 60 13 81 bc 78 2e 12 bd
       0.054861598 0.019948231 -0.015756309 -0.035688847
000070 f5 db ac 3c 21 d4 96 bc 9d 64 b5 3c 25 d3 66 bd
       0.021100977 -0.018411698 0.022142703 -0.056353707
000080 1f a0 67 3d a9 92 51 3d 51 40 ae 3d 1a d4 9e bd
       0.056549188 0.051165257 0.08508361 -0.07755299
000090 6f 40 af bd 97 78 36 3d 46 31 e8 3c f3 58 af 3c
       -0.085572116 0.044548597 0.028343808 0.021404719
0000a0 4c 5e 70 3d 27 59 53 3d f2 c0 89 3d 60 48 5e 3b
       0.05868368 0.051598694 0.067262545 0.003391765
0000b0 f6 70 28 bd 8c 79 9d 3c 08 24 a2 bd 7a 01 03 3c
       -0.041123353 0.019222997 -0.07917029 0.0079959575
0000c0 2f 2f b8 bb 6b 36 95 bd cb dc a9 3d 6e 25 7b 3d
       -0.005620859 -0.0728577 0.08294066 0.061314993
0000d0 2b 1f 89 bd 4d 0a ab 3d 63 fa 15 bd 6c 03 c7 bd
       -0.06695398 0.08351574 -0.03661574 -0.097174495
0000e0 87 ce b3 bd 8d a2 54 3d 19 7a 92 3d 1f 08 5a 3d
       -0.08779626 0.051912833 0.071521945 0.0532304
0000f0 9f 60 98 3c b0 ce 8b 3d 2a 65 0a bd ff 30 9a bd
       0.01860076 0.06826532 -0.033787884 -0.075288765
000100 aa 1e a8 bd 4e 1e 38 3d fe 86 b1 bc e6 e9 e2 3c
       -0.08208974 0.044950776 -0.021670815 0.027699422
000110 7a 87 59 bd 1e aa b9 3d 4e ae 0e 3d 3f 7e 93 3b
       -0.053107716 0.090656504 0.0348342 0.0045011337
000120 c8 f5 6a bc 7f ff 1d bd bd 40 64 bd 96 fd 94 3c
       -0.014340825 -0.03857374 -0.0557258 0.018187325
000130 1c 74 7b 3d 32 16 90 bc f5 ad 17 3e d2 2c 3a 3d
       0.061390027 -0.017588709 0.14812453 0.0454529
000140 60 9b cf 3d c4 da 8e 3d 53 f9 72 bd ea 6e bc 3d
       0.10137057 0.0697532 -0.059319805 0.09200843
000150 3a 15 8a 3d 90 74 9d 3d 8a 07 67 bd bb a8 69 bd
       0.0674233 0.07688248 -0.056403674 -0.05704568
000160 b1 60 32 3c 3d 55 77 bc cc d5 be 3c f7 37 ac bd
       0.010887311 -0.015096006 0.023295306 -0.08409112
000170 93 31 8f 3d 3c 79 70 bd b2 22 4a bd 9c bb 5a bd
       0.069918774 -0.058709368 -0.049349494 -0.053401574
000180 5c 87 8e ba 55 b6 ee 3a ac cc 48 3d 66 9f 38 3d
       -0.001087408 0.0018212298 0.049023315 0.04507389
000190 9c b9 43 b9 c5 02 9c 3d 4f 6e 23 bd ad 0a 02 bd
       -0.00018665794 0.07617716 -0.03990012 -0.031748462
0001a0 48 38 50 bd 0e 14 c6 3d cb 93 5e 3c c3 c6 5d bd
       -0.050834924 0.09671794 0.013585041 -0.054144632
0001b0 63 e4 49 3d 3d 5e e1 3c b1 b1 65 3d f7 b3 07 3e
       0.049290072 0.027510757 0.056077663 0.13252245
0001c0 2a 4a c8 bc c9 24 b0 bc 2a c8 ab 3d ef 66 1a 3d
       -0.024449427 -0.021501916 0.08387788 0.03769582
0001d0 34 a9 58 3d 0b 23 8e 3d 94 19 9e bb 8e 12 3e 3d
       0.05289574 0.06940278 -0.0048248265 0.046404414
0001e0 23 ac 9e bd 2e 4b 6e bd 4b bc be bd 2d e7 e2 bc
       -0.07747676 -0.058177166 -0.09313258 -0.027698124
0001f0 ff 71 5b bd 1c 07 d1 3c aa cb 70 3d 57 47 07 3d
       -0.053575512 0.025516085 0.05878798 0.03302702
000200 1e e8 84 bd 6f f8 2a 3c 34 86 27 bd f9 b7 7c 3c
       -0.06489585 0.010435208 -0.04089947 0.015424722
000210 42 b7 15 3d 09 89 b2 3c 78 58 3f bc e9 34 28 bd
       0.03655172 0.02179386 -0.011678807 -0.041066084
000220 17 35 b0 3d 90 2c 83 3d 79 6f b1 bd 04 0e b9 bd
       0.08603876 0.06404984 -0.0866384 -0.090358764
000230 4b 06 8b 3d b0 12 f6 bd 79 ba 18 3d 31 5f 01 3d
       0.0678831 -0.12015283 0.03728721 0.031584922
000240 55 0f d4 bd 73 62 ce bd 17 20 d5 bd 77 cf e4 bd
       -0.10354487 -0.100773714 -0.10406511 -0.11172383
000250 db d2 75 bd df c8 8c bc 94 20 7d bc f7 98 e5 bd
       -0.06001554 -0.017185627 -0.015449662 -0.11210816
000260 3a fa 22 bd 18 82 00 3d 5f fc 3e 3c 8f be 59 bd
       -0.039789416 0.031374067 0.01165685 -0.053160246
000270 c4 0c 6b 3d c9 98 54 3d cc 6e 18 3b 0b 5d 46 3c
       0.05738522 0.05190352 0.00232594 0.012107144
000280 71 00 96 3d 17 fb 94 3d 54 d3 c8 bc 0e 5a ba 3d
       0.07324303 0.07274454 -0.024514832 0.09099208
000290 75 34 a3 bd b1 14 9f 3b 73 b3 84 bd d2 9f 0a bd
       -0.0796899 0.0048547615 -0.0647954 -0.033843823
0002a0 3c c4 60 bd dd 36 8e 3d ad 81 d5 bc 38 9d 3c bd
       -0.054874644 0.06944058 -0.02606281 -0.046048373
0002b0 a3 3b 4c bd e0 ff ba 3d e6 85 9c 3d 95 6a 8a bd
       -0.04986156 0.091308355 0.076427266 -0.0675861
0002c0 cd ec a6 bd 5d 46 52 bc c2 90 2e 3d ae 35 91 bc
       -0.08150635 -0.012834159 0.04261852 -0.017725792
0002d0 dd 64 3c bd 42 64 f7 bc 34 1d 20 3d 81 f7 67 bb
       -0.04599463 -0.030199174 0.03909035 -0.0035395327
0002e0 2c 9d cb 3c 0c 90 e3 3c c2 22 6e 3d 16 c4 6a 3d
       0.024855219 0.027778648 0.058138616 0.05731591
0002f0 f0 84 20 bb 3b c8 7e bd f6 c9 38 3d 24 8b 73 bd
       -0.00244933 -0.062202673 0.04511448 -0.059458867
000300 9d e2 36 bd 68 25 0e bd 64 56 2a 3d 56 95 b7 bd
       -0.04464971 -0.034703642 0.041586295 -0.089640304
000310 f4 12 22 3d 0f 0f d6 bb 55 5c 95 3a 39 2c 77 3d
       0.039568856 -0.006532557 0.0011395315 0.06034491
000320 aa 7d 6a bd 3b c0 6c 3d c8 95 d7 3c ab 7c c9 bc
       -0.05724875 0.057800513 0.026316538 -0.02459558
000330 b5 ab 7a bd f5 02 83 bd aa 9f 90 bd 03 c1 99 3d
       -0.06119891 -0.063970484 -0.070617035 0.07507517
000340 fc e2 a4 bd 6d 2c 01 3d bb 4d 98 3c 41 84 9d 3d
       -0.08051106 0.03153651 0.018591752 0.07691241
000350 d1 2f c8 3c be 2d 82 3d a3 76 17 bc f2 9d b9 bd
       0.024436863 0.06356381 -0.009244594 -0.09063329
000360 23 33 2f 3d 70 92 96 bc 66 55 2e 3d 12 af 15 3c
       0.042773377 -0.018380374 0.04256191 0.009135978
000370 0a 0f 9a bd c8 c8 c5 3c bf eb 55 3d dd b2 ff 3a
       -0.075224 0.024143592 0.052226778 0.0019508261
000380 f7 d5 a1 bc 40 e7 89 bd 3c 3b a0 3d 08 18 14 bd
       -0.019755347 -0.067335606 0.07823798 -0.03615573
000390 c9 f9 b9 3d 8f 0e bb 3c 66 ac b6 3b 3e f6 48 bd
       0.09080846 0.02283409 0.0055747507 -0.04906296
0003a0 e1 8e ab bd 82 72 31 3d 0c 7b 8a bd 28 d7 77 bd
       -0.08376861 0.043322094 -0.067617506 -0.060507923
0003b0 0c 17 87 3d 41 db 91 3d 6c 3e a1 3d 0b 05 8a 3c
       0.06596193 0.071218975 0.07873234 0.016848108
0003c0 c9 aa 28 3d 66 60 f8 3c 83 41 b6 bd 47 7d de bb
       0.0411785 0.030319404 -0.08899214 -0.0067898366
0003d0 f6 0c 9b 3d 4e a3 4c 3c f7 78 2f 3c 27 c0 c6 3d
       0.075708315 0.012490107 0.010709993 0.09704619
0003e0 e0 b9 13 3d e9 af 35 3d 9c 9b ab bd 3e 75 9b bd
       0.036065936 0.044357214 -0.083792895 -0.075907215
0003f0 35 99 05 3b 87 f9 42 bd db d9 67 3c 2b 52 2e 3d
       0.0020385508 -0.04760125 0.014151062 0.04255883

conv1.bias f4 [64]
000000 28 af 06 bd b3 b7 b1 3d 6e 46 84 bd 3a 7d 58 bd
       -0.032881886 0.08677616 -0.06458746 -0.0528538
000010 94 e8 fb 3c 2a b2 80 3d 1e 85 3d 3d 10 a4 a1 3d
       0.03075055 0.06283982 0.04626953 0.078926206
000020 13 28 af 3c fb 51 98 3d 0e dc aa 3d 89 5d 2d bd
       0.021381414 0.074375115 0.08342753 -0.04232553
000030 d3 b2 ab 3d 25 b4 df 3c 8a d6 b1 bd 00 8f ae 3d
       0.083837174 0.02730758 -0.08683498 0.08523369
000040 58 9c 4f bd ac 0d b2 bd 29 c3 1d 3d 19 d4 62 3d
       -0.05068621 -0.08694014 0.038516197 0.055378053
000050 cc 6f 50 bd d4 6f b7 3d 6a aa 83 bd 2f 91 91 3d
       -0.050887868 0.089568764 -0.06428988 0.0710777
000060 4d 04 ad 3d c6 b7 b3 3b 62 fb ad bc ce 43 96 bd
       0.08448086 0.005484554 -0.021238033 -0.073371515
000070 50 44 83 3d 7a 40 8f 3d 0c fb a2 bd b8 a8 63 3d
       0.06409514 0.0699472 -0.0795804 0.055580825
000080 53 0c 9c bb d5 63 fd 3a 40 ed ec bc 85 ab 56 bc
       -0.0047622113 0.001933212 -0.028921723 -0.013102417
000090 48 d6 6d 3d 57 78 59 3d 0a 45 27 3d fd 08 b8 bd
       0.058065683 0.05309328 0.040837325 -0.089860894
0000a0 0e 9b 9e 3d b0 35 8b 3d a5 da 73 bd c9 b1 d2 3c
       0.07744418 0.067973495 -0.059534688 0.02571954
0000b0 01 9a 98 bd 19 43 9d bd 0e 69 95 bd ec c1 76 bd
       -0.07451249 -0.076788135 -0.07295428 -0.060243532
0000c0 96 ac 61 3d 52 03 88 3c 9a 5e cf 3c 2f 0f 1d 3c
       0.05509623 0.016603146 0.025313664 0.00958614
0000d0 de 50 9a bd cd fb fa bc 33 bb 44 3c 34 8f a2 bd
       -0.075349554 -0.030637646 0.012007522 -0.0793747
0000e0 c2 17 aa 3d db ad 83 3c 1e ec 32 bd 14 88 8d bc
       0.08305313 0.016074112 -0.04368221 -0.017276801
0000f0 3b cb ce 3b aa 57 4e 3d d0 5b 08 bc cc d2 9f bd
       0.006310848 0.05037657 -0.008322671 -0.07803878

bn1.weight f4 [64]
000000 3d ac 80 3f 5c 8e 84 3f 46 71 81 3f 2c 22 7b 3f
       1.0052563 1.0355945 1.0112693 0.9809902
000010 d9 a3 80 3f 33 12 7e 3f d4 d6 80 3f eb 64 7c 3f
       1.0050002 0.9924652 1.006556 0.9859149
000020 91 e5 81 3f 3a 78 80 3f 1c 17 80 3f a2 27 7a 3f
       1.0148183 1.003669 1.0007052 0.97716725
000030 a7 1f 83 3f d5 7e 7d 3f 4e 31 7e 3f e5 60 81 3f
       1.0244035 0.99021655 0.99293983 1.0107695
000040 eb b5 81 3f de 1b 80 3f 13 7d 7e 3f 69 f4 80 3f
       1.0133642 1.0008504 0.994096 1.0074588
000050 d1 b6 7f 3f 91 ff 7c 3f 10 70 79 3f 94 d1 7c 3f
       0.9988833 0.98827463 0.9743662 0.9875729
000060 8c 57 81 3f a8 d3 77 3f a6 da 82 3f 54 09 7f 3f
       1.0104842 0.96807337 1.0222976 0.9962361
000070 ce 8e 7a 3f ba 19 7c 3f 8b 3e 83 3f d9 ca 81 3f
       0.9787415 0.98476756 1.0253462 1.0140029
000080 df 7a 80 3f e3 5e 81 3f b0 f0 82 3f e0 e1 80 3f
       1.0037497 1.0107082 1.0229702 1.0068932
000090 e8 85 80 3f 3b a7 7c 3f af 0d 80 3f 66 82 85 3f
       1.0040865 0.98692673 1.0004176 1.043042
0000a0 f8 cf 82 3f 2b ba 81 3f f5 fc 7d 3f e3 0f 7b 3f
       1.0219717 1.0134939 0.99214107 0.98071116
0000b0 38 e6 7f 3f a7 89 7e 3f 22 64 80 3f 8d ff 82 3f
       0.9996066 0.9942879 1.0030558 1.0234238
0000c0 e9 37 81 3f 8c 37 82 3f 14 ed 78 3f 5e fd 81 3f
       1.0095187 1.0173202 0.9723675 1.0155447
0000d0 9c d7 83 3f 81 1a 82 3f 3c 3c 7e 3f 49 cf 80 3f
       1.0300174 1.0164338 0.9931066 1.0063258
0000e0 bf ef 7d 3f 2b ef 7f 3f dc 08 7e 3f 1d ad 7f 3f
       0.9919395 0.99974316 0.9923227 0.99873525
0000f0 c6 7f 7d 3f 4b 59 78 3f c5 51 7c 3f e0 a4 7e 3f
       0.9902309 0.9701125 0.9856227 0.9947033

bn1.bias f4 [64]
000000 33 ef 36 3c cf 71 36 3c af 10 ed 3a 36 df 8a bc
       0.011165428 0.0111355325 0.0018086637 -0.016952138
000010 54 dc 4b bb 62 61 19 3b 15 02 78 bb 3b 27 61 bb
       -0.0031106668 0.0023403992 -0.0037843038 -0.0034355659
000020 fb a1 95 3c 9d 4d c1 3b 93 ad 0e 3c fd fc 3e bc
       0.018265715 0.005899145 0.0087083755 -0.011656997
000030 ae c1 6b 3c d0 e7 2d 3c 6a 58 07 bc ca 19 b7 bb
       0.014389439 0.01061435 -0.008260826 -0.005587791
000040 3f ea 5d 3c a6 30 65 bc c7 7e 3f bc 91 74 10 3b
       0.013544618 -0.0139886495 -0.011687941 0.0022042135
000050 cf 78 af bb 06 5c 16 bc d3 a5 a6 bc bd 53 b3 bc
       -0.0053549777 -0.009177214 -0.020342743 -0.021890515
000060 41 61 3c 3c f7 d0 b0 bc dc 87 37 3c 2a e6 72 bb
       0.0114977965 -0.021584017 0.011201825 -0.0037063458
000070 8a 25 86 bc 21 e4 2c bc 71 0b f9 3c eb 3a 2c 3c
       -0.016375322 -0.010552437 0.030400964 0.010512094
000080 a4 6a 1c 3c 68 f9 29 3d 61 1b 32 3c 45 ec 7c 38
       0.0095469095 0.041497618 0.010870785 6.0301525e-05
000090 10 6d 93 bc d8 bd 07 bc 2c 0f 6f 3c 1f 2b 9d 3c
       -0.017996341 -0.008285008 0.01459102 0.0191856
0000a0 9d bb a1 bb ee 79 84 bc e1 64 ff bb 01 dc c9 bc
       -0.0049356953 -0.016171422 -0.007794008 -0.024641039
0000b0 b2 9b c6 bb e1 c0 25 ba c1 20 da bb ca c7 6b 3c
       -0.006061041 -0.00063229917 -0.0066567366 0.014390895
0000c0 21 73 d7 ba 5a 2f 60 3b 2f bf 30 bc b1 78 e5 3b
       -0.0016437509 0.0034207911 -0.010787769 0.007002913
0000d0 66 34 b2 3c 2e 69 2b 3c e6 93 bb bc 29 87 85 39
       0.021753501 0.0104620885 -0.022897672 0.0002546844
0000e0 5f 1f 3d 3b 77 9d 8c bc 18 c6 54 bc 67 28 6f bc
       0.002885781 -0.017164929 -0.012986682 -0.014597035
0000f0 87 6f 82 bc 34 0f 14 bd a3 02 4c 3b a5 c3 c3 3b
       -0.015922321 -0.03614731 0.0031129501 0.0059742504

bn1.running_mean f4 [64]
000000 ac 48 17 c1 39 d1 33 42 cb 98 a8 40 2f 1e 66 41
       -9.455242 44.95432 5.2686515 14.382369
000010 b8 9c 7f c1 0b e0 d5 c1 87 fd 16 c1 7b ba 9a c0
       -15.975761 -26.734396 -9.436896 -4.8352637
000020 a4 0a b7 c1 54 a6 15 42 c3 ad d1 c1 0c e7 92 c0
       -22.880196 37.41243 -26.209845 -4.590704
000030 59 93 56 42 53 26 65 c0 1c ec 5b c1 5d a2 91 c1
       53.643894 -3.5804641 -13.745144 -18.204279
000040 4f d3 5d c1 7c e7 d6 41 91 e3 6f 41 d2 bf e7 3c
       -13.864089 26.86303 14.993058 0.02828971
000050 25 b2 c2 c1 9e 61 ab c1 10 63 14 c2 e6 d9 5f 41
       -24.336985 -21.422665 -37.09674 13.990698
000060 df e1 0b 42 51 74 a4 41 78 3b 2f 42 07 c1 55 40
       34.970577 20.556795 43.808075 3.3399065
000070 90 51 82 c1 5c 68 bd c1 9a 02 a8 c1 61 62 59 42
       -16.289825 -23.675957 -21.00127 54.346073
000080 c0 2a 2f c2 49 3a 87 c1 aa 6e 36 42 79 d2 8d bf
       -43.791748 -16.90346 45.60807 -1.1079856
000090 5a 98 02 42 2c 89 99 bf ab 26 5c 41 17 59 17 c2
       32.64878 -1.1994987 13.75944 -37.837
0000a0 ea 47 d1 41 30 6e ca 41 a1 dc 38 42 c6 9a 83 40
       26.160114 25.303802 46.215458 4.1126432
0000b0 59 14 97 41 23 87 b0 c1 96 9a 2c c0 fe 5d 52 42
       18.884935 -22.065985 -2.6969352 52.59179
0000c0 18 ba 86 c1 60 c8 1e 42 f3 ed b7 c1 c2 5c 90 c1
       -16.840866 39.69568 -22.991186 -18.045292
0000d0 6b 11 4a 42 1a a0 c5 41 83 41 54 c1 78 4d 31 42
       50.51701 24.703175 -13.265994 44.325653
0000e0 70 9a 79 c1 9c 6f 1e 42 1d 9b 01 42 2a a1 58 c1
       -15.600204 39.608994 32.401478 -13.539347
0000f0 c4 fc 3f 40 5f 29 14 41 bd 1e 7e c1 ca 24 05 c2
       2.9998026 9.2601 -15.882504 -33.285927

bn1.running_var f4 [64]
000000 9b 6a 05 42 58 40 ed 43 76 eb d2 41 59 dd 8e 42
       33.354107 474.5027 26.364971 71.43232
000010 9f ac b8 41 f9 8e e9 42 31 3e c0 41 cc ca 16 42
       23.084288 116.77924 24.030367 37.698044
000020 70 cd 44 43 06 82 98 43 5b 8c 4c 42 7d 20 7c 42
       196.80249 305.0158 51.137066 63.031727
000030 37 c3 21 44 4a 0b 13 43 a5 97 4b 42 96 e3 f1 42
       647.05023 147.0441 50.89809 120.9445
000040 72 d8 a1 42 79 b3 0d 43 3e 04 39 42 b5 d7 1c 42
       80.922745 141.70107 46.254143 39.21065
000050 22 40 13 43 17 92 b5 42 b4 08 2a 43 f1 b7 b0 42
       147.25052 90.78533 170.034 88.35926
000060 72 b1 a7 43 fd 9b a4 42 d9 79 af 43 04 10 8c 42
       335.3863 82.304665 350.95193 70.03128
000070 8d cc 19 42 12 ef 79 42 f4 f9 37 42 36 7b 08 44
       38.449757 62.483467 45.994095 545.9252
000080 5c bc 2d 43 44 93 a1 42 fa 76 a9 43 41 53 f1 41
       173.73578 80.78763 338.9295 30.165651
000090 2e 59 2e 43 6e ba 8d 41 cb f7 63 43 5a 7d 62 42
       174.34836 17.71603 227.96794 56.622414
0000a0 1a d1 04 43 c3 4b d4 42 48 03 bd 43 32 23 77 42
       132.8168 106.14797 378.02563 61.78437
0000b0 9e c1 e9 42 c4 0d 41 42 7d 82 36 42 bc e9 ed 43
       116.87816 48.263443 45.62743 475.82605
0000c0 5e d5 01 43 5a 11 7c 43 38 29 90 42 bf a9 a0 42
       129.83347 252.06778 72.080505 80.331535
0000d0 3d 2e 92 43 b4 b6 eb 42 db 2c 8d 43 25 11 c0 43
       292.36124 117.85684 282.35043 384.13394
0000e0 64 44 0d 42 a0 c5 94 43 d1 0f 32 43 7f a2 60 42
       35.316788 297.54395 178.06178 56.158688
0000f0 69 e3 34 42 a7 fd 5e 42 43 97 c3 42 46 f6 4f 42
       45.22208 55.747707 97.79543 51.9905

conv2.weight f4 [128, 64, 3]
000000 b4 bc a1 3c 89 fe af bb eb 34 a0 bd d0 49 1c 3d
       0.019743301 -0.005370919 -0.07822593 0.03815633
000010 e6 d7 12 bd f5 e8 97 3d a7 c1 4e bd a2 db 8b 3b
       -0.035850428 0.0741748 -0.05047765 0.0042681256
000020 7b 3c ca 3c 3f b8 0f 3c fe 43 87 3d fb f2 b9 bc
       0.024687042 0.008771955 0.06604765 -0.02269887
000030 af d7 fc bc f3 64 13 3d 75 5b 25 3c 09 15 83 bd
       -0.030864565 0.035984945 0.010092606 -0.064004965
000040 1c 9f bd bc e9 be 83 3c ab 6f f6 bc f9 23 dd bc
       -0.023147158 0.016082244 -0.030082544 -0.026994692
000050 23 a4 b1 3c be 36 8a 3d b1 2f f3 3c ef 26 87 3c
       0.021684712 0.067487225 0.029685827 0.016498057
000060 91 c2 13 bd a2 5b 2d bd 1f 64 4d bd 4e 37 82 3b
       -0.036074225 -0.042323716 -0.05014431 0.003973878
000070 13 5d e6 3b 12 5c 1c 3d 80 e5 7a 3d 8d 56 17 3d
       0.0070301383 0.038173743 0.061254025 0.036947776
000080 e4 48 29 bd 91 83 b8 39 1c 5b 62 bd 37 79 59 3d
       -0.04132928 0.0003519324 -0.05526267 0.053094115
000090 0c 02 9a 3d 9c 30 4a 3d 7c 50 1c 3c 0c 9c 7c bd
       0.07519922 0.049362764 0.009540673 -0.061672255
0000a0 22 67 02 bd 51 29 2c 3d ab 95 c4 3c 3f 56 87 bd
       -0.031836636 0.04203159 0.023997148 -0.06608247
0000b0 bf 3f 57 bd 32 80 a0 bd c6 e9 a7 bd b4 e4 18 bd
       -0.052551027 -0.07836951 -0.081988856 -0.037327483
0000c0 a5 54 e5 3c 36 a9 01 3d 7c 93 5c 3d a5 ed 9f bc
       0.027994463 0.031655513 0.05385159 -0.019522497
0000d0 53 14 8a 3d b5 94 c9 bc bd 64 6c 3d 89 b1 1f bd
       0.06742158 -0.024607042 0.05771326 -0.03898767
0000e0 c7 4b c7 bc 94 de 18 bd 64 09 a8 bc e8 28 cb bc
       -0.024328126 -0.037321642 -0.02051229 -0.024799779
0000f0 f4 1b a0 bd 07 fd 5e 3d b6 c2 54 3c 6c c3 26 3d
       -0.07817832 0.054440524 0.012985876 0.040713713
000100 8c af a8 bd 62 01 aa bd ef 9e 40 3d ae 3f d8 bc
       -0.08236608 -0.08301045 0.04702657 -0.026397552
000110 66 a1 b5 bc 0e 1c 64 bb 0b 65 c3 bc dc bb 8e 3c
       -0.022171687 -0.003480676 -0.023851892 0.017423563
000120 47 44 54 bc 11 d4 17 3d 90 22 8e 3d a3 13 9c bd
       -0.012955732 0.037067477 0.06940186 -0.07620933
000130 6d 36 50 3d 32 eb 18 3d c7 c1 72 3c 19 f6 5c bb
       0.050833154 0.037333675 0.014816708 -0.0033716022
000140 ce 62 68 3d 60 fa a2 3c bf 11 1e 3d bb 54 77 bd
       0.056734852 0.019894779 0.038591143 -0.06038354
000150 79 4a 19 bd 21 cc 84 3d 54 32 46 3c ad 9d 4c bd
       -0.03742454 0.06484247 0.01209696 -0.04995506
000160 9c 14 41 3d b8 cd 54 bd a3 e9 1c 3d 9d 08 94 3d
       0.047138795 -0.051954 0.03830875 0.07228205
000170 59 4a 29 bc 6a 81 f9 3c e7 ae 2f 3c 17 de 14 3d
       -0.010332667 0.030457217 0.010722852 0.036344614
000180 59 6e 8a 3d a2 37 86 bd 69 68 36 3d af 14 eb bc
       0.067593284 -0.0655358 0.044533167 -0.028696386
000190 ab a5 0d bd 67 0f 62 bc 4b c5 70 3d e3 8f 47 bd
       -0.03458182 -0.0137976175 0.058781903 -0.048721205
0001a0 77 ef 69 3c 20 6b 12 3d 5a 0c 86 3b 9e 25 c1 3c
       0.014278284 0.035746694 0.004090828 0.023577508
0001b0 18 ee 9e 3d a8 36 62 3d aa 4e 52 3d 7f 44 89 bd
       0.077602565 0.055227906 0.05134455 -0.06702518
0001c0 59 07 5d 3d 9a 5f 56 bd f5 21 6b 3c 5c 56 21 3d
       0.053962085 -0.052337267 0.014351358 0.039389
0001d0 9b 11 5d 3c 01 13 c4 3c e3 50 16 3d b6 b8 9c bd
       0.013492967 0.023934843 0.036698233 -0.07652418
0001e0 27 86 5f 3d be 3a cc bc ce da 05 bc 45 9f 4f 3c
       0.054571297 -0.024930354 -0.008169843 0.01267225
0001f0 ee da 83 bd 79 04 f9 bc 26 56 eb 3c 6c 64 20 3c
       -0.06438242 -0.03039764 0.028727602 0.009789567
000200 19 a7 28 bd 5f f6 1f 3d 85 26 60 3a fc c0 63 3d
       -0.04117498 0.039053317 0.0008550662 0.055603966
000210 c0 93 81 3c 36 28 68 bd 3b 84 65 3d 2e f2 58 bd
       0.015817523 -0.056678973 0.056034308 -0.052965336
000220 b9 9b 23 3d 03 2b 77 3d 0c 76 f3 3a 1f 74 73 bc
       0.03994343 0.060343754 0.001857461 -0.014859228
000230 9e a8 4e bd 0d 3b a2 3d 97 ff a9 3d bb a2 1a 3d
       -0.050453775 0.07921419 0.08300703 0.037752848
000240 fa 88 39 3d 74 a0 31 3d 9d 03 25 3c 24 bd 32 3d
       0.045296647 0.04336591 0.010071662 0.04363741
000250 22 18 ed 3c e8 b2 41 bd 03 20 ed 3c 2b 78 9d bd
       0.028942171 -0.04728976 0.028945928 -0.07688936
000260 16 c9 80 3d 0e b0 83 bb 21 13 04 3d 3c a3 5c bd
       0.06288354 -0.00401879 0.032244805 -0.05386661
000270 4d 28 8a 3d 3d 76 ba bc f1 1f b1 3d af b0 d5 bc
       0.06745968 -0.022761459 0.086486705 -0.026085226
000280 2e a9 0b 3d fe 5b 25 3b 97 72 c0 bc a9 59 e3 bb
       0.03409689 0.0025231834 -0.02349214 -0.0069381786
000290 15 2c 47 3d 12 81 f5 3c d9 73 ad 3d 10 33 1c bd
       0.048626024 0.029968772 0.08469362 -0.038134634
0002a0 e7 2f 11 3d 8f 5b 00 bd c1 69 41 bd aa a8 a2 3d
       0.035446074 -0.031337317 -0.047219995 0.07942326
0002b0 33 79 91 bc 5d 0c bd ba 9f f7 47 bd 95 e1 42 bd
       -0.017757988 -0.001442324 -0.048820134 -0.047578413
0002c0 b7 9e 91 3d 81 96 b4 3c b8 d7 f3 3c 55 1b 3b 3d
       0.071103506 0.022044422 0.029765949 0.045680363
0002d0 43 87 4e 3d 9c c3 bf bc a6 76 92 3d 81 7e 39 bd
       0.050421964 -0.023408704 0.07151537 -0.04528666
0002e0 0d 39 37 bd bb 89 5d bd 1d 1e c8 3c ed c3 98 3c
       -0.044732142 -0.054086428 0.024428422 0.018648112
0002f0 f7 f3 39 3c 35 25 35 bc fd 9a aa 3c 52 d5 f3 3c
       0.01134967 -0.011056234 0.020825857 0.029764805
000300 f7 f7 26 bc dc 80 06 3d 1d e0 22 3a a6 b5 96 3d
       -0.010190955 0.032837734 0.0006213205 0.073588654
000310 bc 57 22 bd 14 bc a3 3d a6 26 21 bc f7 ba 49 bc
       -0.03963445 0.079948574 -0.009835875 -0.012312642
000320 ef 51 8c bd 3d de 1e 3d 0e c9 9f 3c 58 56 d9 bc
       -0.06851565 0.03878616 0.01950505 -0.02653043
000330 c9 38 f2 bb bb 6e 0f bd 0d d2 2f bd 9d 88 11 bd
       -0.007392023 -0.03501771 -0.04292493 -0.035530675
000340 a6 75 89 bd 6b 2c 66 3c 9c 2e 53 3d 8a 86 aa 3c
       -0.06711893 0.014048676 0.051558122 0.020816106
000350 9a 72 a6 bd e8 1b 5b 3c 7a 55 70 3d bd ac a8 3c
       -0.08127327 0.013373353 0.058675267 0.02059018
000360 7f a5 6f bd bd 3f 7d bd c4 74 3a bc 10 35 7e 3d
       -0.05850744 -0.061828364 -0.011380378 0.062062323
000370 50 c2 01 bd b4 ae 0a bd cd a0 f3 39 b6 f5 a3 bc
       -0.03167945 -0.033858016 0.00046468378 -0.020014625
000380 02 93 f1 3c 7e a7 2d 3d d6 cb ce 3c 14 16 3f bd
       0.029489044 0.04239606 0.02524368 -0.046651915
000390 cf 29 66 bb b1 24 35 bd d7 80 92 3d e8 50 a4 bd
       -0.0035120135 -0.044224445 0.071534805 -0.08023244
0003a0 e8 9b 4f bd b7 21 21 3d c2 e5 53 bd 1a f5 45 3d
       -0.050685793 0.039338794 -0.051732786 0.04832945
0003b0 29 30 1a 3d 36 87 2d 3d 1f 78 1b bd 9d bb 92 bd
       0.037643585 0.042365275 -0.037956353 -0.07164691
0003c0 25 08 1d 3d f8 6c 86 bc 17 9a 52 bd 5a f1 94 3d
       0.038337845 -0.016409382 -0.051416483 0.07272597
0003d0 fc 85 14 3c 70 13 05 3c ab 40 21 3d 12 83 a5 3d
       0.0090651475 0.00812231 0.039368313 0.0808164
0003e0 dc fe f1 3c 8e da a6 bc d2 39 a6 bc 3c ab ff bc
       0.029540472 -0.020367887 -0.020291243 -0.03120958
0003f0 2b f1 a7 bd ac e3 f7 bc 8d d9 ec 3a c4 23 99 bd
       -0.08200296 -0.03025993 0.0018070206 -0.07477525

conv2.bias f4 [128]
000000 6c 9a 8f 3d 29 54 e3 3c 29 d6 1c 3d d4 98 29 3d
       0.070118755 0.027750092 0.038290177 0.041405514
000010 54 79 a9 3c a8 42 90 3d 04 63 28 bc 93 0e 91 3c
       0.020687737 0.07043964 -0.010277513 0.017707145
000020 60 e2 30 bd 80 a0 22 bd 9a 7f 42 bd a4 7e fc 3c
       -0.043184638 -0.039703846 -0.04748497 0.030822106
000030 4f 64 b7 bc 19 31 6d bd 50 b5 8d 3d 3c d8 5c bc
       -0.022386698 -0.05790815 0.06919348 -0.013479289
000040 2c cf 24 bd 22 cd 1f bd aa dc 28 bd 31 fa a3 3c
       -0.040236637 -0.03901399 -0.041226067 0.020016761
000050 21 b9 26 bd 5b cc e0 3b de 1e 84 bd 3a 09 92 3d
       -0.040703896 0.0068602986 -0.064512 0.07130666
000060 7c 9b 79 bd 39 2a 56 3d 9a 46 90 3d 21 1a 4d bd
       -0.060939297 0.05228636 0.07044716 -0.050073747
000070 7f 0d 4f 3d 4b 05 da 3c 68 26 86 3c 07 26 48 bc
       0.05054998 0.026613852 0.016375735 -0.012216098
000080 cc 68 63 bd 08 68 82 3d 84 e8 54 bc e3 4c 03 3d
       -0.055519864 0.06367499 -0.012994889 0.032055747
000090 d6 46 2b 3d 41 73 7a 3d 4a ad 8c bc 66 ae 80 3d
       0.0418156 0.06114507 -0.017172474 0.06283264
0000a0 39 06 b2 3c 92 72 fd bc d2 40 21 bc 7d 56 f0 3b
       0.021731483 -0.03093842 -0.0098421145 0.007334529
0000b0 e8 ea 43 3d ef 4b 2b bc a0 a8 81 bc cc c3 10 bc
       0.047831446 -0.010455116 -0.015827477 -0.008835744
0000c0 75 0a 14 3b 08 93 3a bc b1 c1 63 bd 30 1f d1 ba
       0.002258924 -0.011387594 -0.05560464 -0.0015954729
0000d0 9c b5 82 3c 7d 81 1e 3d f7 64 83 3d 6d b6 4b bc
       0.015955739 0.03869771 0.06415742 -0.01243363
0000e0 57 55 6a bd 10 63 99 3c c9 c4 26 bd 10 6b 7b bc
       -0.057210293 0.018723994 -0.040715013 -0.01534535
0000f0 bd b4 7b 3d 3c e8 5f bc 70 47 90 bc b4 5d 86 3c
       0.061451662 -0.013666209 -0.017612189 0.016402103
000100 6a d3 d1 bc 77 b0 09 3d c6 6f 83 3b 42 26 5a bd
       -0.025613505 0.033615556 0.004011127 -0.05325914
000110 ca f6 21 3b 8e bf 2f ba 14 b3 17 bd e6 4c 6d 3c
       0.0024713748 -0.0006704264 -0.037036017 0.014483666
000120 af 19 2b bd f2 7e 22 bd 5f d1 22 3d 0e 14 78 bd
       -0.04177254 -0.039671846 0.039750453 -0.060566
000130 97 11 1e bd 20 70 34 bc 53 d6 5e bd cc 8d 5c bd
       -0.038590994 -0.011013061 -0.054403614 -0.053846166
000140 31 63 87 3d 7d 7d 36 bd 0a 0b 91 3d f3 23 70 3d
       0.06610716 -0.04455327 0.07082184 0.058628034
000150 81 2f 8d 3d 02 87 92 bd 22 79 9c bc d9 66 bc 3a
       0.06893826 -0.07154657 -0.01910073 0.0014373913
000160 71 d3 92 3c 9d a6 16 bd 06 00 8c 3a 47 09 9d 3c
       0.017923089 -0.03677999 0.0010681159 0.019169463
000170 88 5d f5 3c dd 42 85 bd 01 85 85 3d 15 94 85 bd
       0.029951826 -0.06506894 0.06519509 -0.06522385
000180 ad fc 2c bd be 42 8e bc 38 23 23 bd fb b4 51 3c
       -0.042233158 -0.01736581 -0.03982851 0.012799497
000190 55 88 4c bd a2 27 1a 3a 0e d8 0b 3d 7f 92 f6 3b
       -0.049934704 0.00058805395 0.034141593 0.007524788
0001a0 a3 a0 b0 3c 93 79 5a 3c 82 f7 20 bd cc e9 bb bb
       0.021560973 0.01333465 -0.03929854 -0.005734658
0001b0 cb 12 08 3d 40 61 78 3d 85 c4 48 3d da a2 78 3c
       0.033221047 0.06063962 0.04901554 0.015175546
0001c0 9b 47 ba 3c f3 f6 f1 3c 08 92 94 3c 11 a4 b0 bc
       0.022739222 0.0295367 0.01813604 -0.021562608
0001d0 0b de 36 bd 44 61 80 3d 12 46 1f 3d 65 7f 01 3d
       -0.04464535 0.06268552 0.038885184 0.031615634
0001e0 ef 9e d1 3c 40 9f 40 bd 4e ec 26 3d 32 a9 b1 bb
       0.02558848 -0.047026873 0.0407527 -0.005421781
0001f0 da 4b 8e bd fa 06 14 3d 8e cf 7c bc ff f9 84 3d
       -0.06948061 0.036139466 -0.015430344 0.064929955

bn2.weight f4 [128]
000000 d8 04 7d 3f 7f c2 7e 3f 6c 59 7d 3f dd b4 80 3f
       0.98835516 0.9951553 0.9896457 1.0055195
000010 a4 81 77 3f 61 39 81 3f e4 77 7b 3f c9 f0 7e 3f
       0.9668219 1.0095636 0.98229814 0.9958616
000020 08 eb 77 3f 1d 2c 7b 3f 47 6e 84 3f 8d 4a 81 3f
       0.96843004 0.98114187 1.0346154 1.0100876
000030 eb 65 82 3f c7 d0 7a 3f f9 63 82 3f 40 16 82 3f
       1.0187353 0.9797482 1.0186759 1.016304
000040 6d 9e 7d 3f c8 ea 81 3f db d2 79 3f 2a 87 80 3f
       0.99069864 1.0149775 0.97587365 1.0041249
000050 9f c7 7b 3f 21 28 7a 3f 2d 86 7c 3f a8 b6 81 3f
       0.9835147 0.9771748 0.98642236 1.0133867
000060 63 21 7d 3f 05 c6 7e 3f 6f 65 81 3f 9e 29 81 3f
       0.9887907 0.99520904 1.010908 1.0090826
000070 51 11 77 3f e8 f2 81 3f 4c b2 7f 3f df 4e 7d 3f
       0.965108 1.0152254 0.99881434 0.9894847
000080 b7 a8 75 3f fd d0 7e 3f 1a 46 7f 3f cc 0c 82 3f
       0.95960563 0.9953764 0.9971634 1.0160155
000090 ae 4e 7c 3f da 9d 80 3f 10 26 81 3f 89 7d 81 3f
       0.98557556 1.0048172 1.0089741 1.0116435
0000a0 d9 1e 81 3f 91 51 81 3f 4d 50 7d 3f 5f 29 7d 3f
       1.0087539 1.0103017 0.98950654 0.9889125
0000b0 18 5e 81 3f dc 23 7d 3f 3b 3b 82 3f 3a c6 7c 3f
       1.010684 0.9888284 1.0174326 0.9873997
0000c0 b8 88 7a 3f 00 a0 82 3f 78 a3 82 3f 87 1d 7e 3f
       0.97864866 1.0205078 1.0206137 0.99263805
0000d0 f9 3f 82 3f 4c 07 7b 3f dd 8a 80 3f 8f 34 82 3f
       1.0175773 0.9805801 1.0042378 1.017229
0000e0 7b 21 7f 3f b8 fb 7e 3f 77 9f 7d 3f 96 81 86 3f
       0.9966046 0.9960284 0.9907145 1.0508296
0000f0 c3 6c 7e 3f 16 74 7e 3f 0a 81 81 3f 16 a3 81 3f
       0.9938471 0.99395883 1.0117505 1.0127895
000100 72 0d 81 3f 64 75 80 3f f6 da 81 3f 55 60 80 3f
       1.0082228 1.0035825 1.0144947 1.0029398
000110 64 dd 82 3f c4 74 83 3f 6c 6e 7f 3f 02 73 79 3f
       1.0223813 1.0270009 0.99777865 0.97441113
000120 29 68 81 3f cd d9 81 3f f4 8e 7a 3f e4 fa 82 3f
       1.0109912 1.0144593 0.9787438 1.0232816
000130 34 7f 7d 3f fc 76 7f 3f e3 8f 7e 3f 05 5b 7f 3f
       0.9902222 0.9979093 0.99438304 0.9974826
000140 f6 1e 7b 3f 1b 9c 7e 3f c0 fd 82 3f a4 a1 80 3f
       0.9809412 0.9945695 1.0233688 1.0049329
000150 21 61 7f 3f e4 2f 81 3f 3b 0e 83 3f 2e d0 80 3f
       0.9975758 1.009274 1.0238718 1.0063531
000160 38 f5 7f 3f 7b 55 77 3f ea 4e 80 3f e0 7c 81 3f
       0.9998355 0.9661481 1.0024083 1.0116234
000170 d9 b6 80 3f 4c f6 78 3f 87 68 78 3f c9 dc 7d 3f
       1.0055801 0.9725082 0.97034496 0.99165016
000180 69 20 81 3f 05 1b 80 3f 23 03 7d 3f 8c a1 81 3f
       1.0088016 1.0008246 0.9883291 1.0127425
000190 f5 bc 80 3f 53 2c 7a 3f 20 8a 7c 3f 94 4e 83 3f
       1.0057665 0.97723883 0.9864826 1.0258355
0001a0 3e 04 83 3f 46 fd 7f 3f 4e 4c 7b 3f b5 2b 81 3f
       1.023567 0.9999584 0.98163307 1.0091463
0001b0 63 22 80 3f 7a b3 80 3f 74 2c 7c 3f e4 46 7d 3f
       1.0010494 1.0054772 0.9850533 0.98936296
0001c0 31 f3 7a 3f f5 c0 79 3f 55 0a 80 3f be 91 7a 3f
       0.9802733 0.97560054 1.0003153 0.97878635
0001d0 44 e5 7f 3f 8c a7 7a 3f 07 70 84 3f 68 5e 81 3f
       0.99959207 0.97911906 1.0346688 1.0106936
0001e0 4d fe 79 3f cb a3 81 3f 41 dc 7e 3f 6f f1 7f 3f
       0.9765366 1.0128111 0.9955483 0.99977773
0001f0 f2 f1 81 3f d4 32 7b 3f 03 86 80 3f bc 92 80 3f
       1.0151961 0.9812443 1.0040897 1.004478

bn2.bias f4 [128]
000000 d2 33 80 3a 29 46 09 38 d7 8b c2 bb 2e 87 75 bc
       0.0009781069 3.2728687e-05 -0.0059370804 -0.014985843
000010 b2 ce 0c bd 11 98 26 bc 16 a7 f9 bb e5 fb 16 3b
       -0.034376808 -0.010168091 -0.007618795 0.0023038324
000020 7a 90 8a bc 56 86 92 bc 75 3f 9e 3c 97 d0 51 ba
       -0.016914595 -0.017886322 0.019317368 -0.00080037996
000030 ac ce 0a 3c 25 d1 5a bc 33 73 ab bb 12 6d 73 bb
       0.008472126 -0.013355528 -0.0052322387 -0.0037143868
000040 9c 4a 2b 3c e8 ff ca bc 66 15 c0 bc 55 ae 41 3a
       0.0104548 -0.024780229 -0.023447704 0.0007388343
000050 50 24 98 bc b7 47 97 bc 33 36 e7 bc 23 05 37 bc
       -0.018572003 -0.018466813 -0.028224086 -0.011170658
000060 a9 e7 93 bc 2e 8a f6 3b fe b8 0f 3c d7 65 66 3c
       -0.0180548 0.0075237965 0.008772133 0.014062366
000070 08 df f6 bc 32 c7 41 3c 2c 9a 17 3c 9b 3b 66 bc
       -0.030135646 0.011827277 0.009253066 -0.014052297
000080 a4 a3 2d bd 3f 5b d3 bc 56 2b 70 3c 48 16 a5 3c
       -0.042392388 -0.025800345 0.01465877 0.020152226
000090 3c 23 9c bb f5 bf 56 3b 61 84 4f 3c e2 d1 06 bc
       -0.0047649425 0.0032768224 0.012665839 -0.008228751
0000a0 38 d0 f7 bb 66 b0 8b 3b ad 7e fd 38 4a 8b c8 bc
       -0.0075626634 0.0042629717 0.00012087575 -0.02448048
0000b0 e6 3a 56 3b 6d 29 56 bc 53 a4 9b bb a2 bf 50 3b
       0.0032688915 -0.0130714 -0.0047498136 0.0031852503
0000c0 24 ea 2b bd 1b b7 c3 3b f9 08 08 3b 05 5c 70 3b
       -0.04197134 0.0059727556 0.0020757301 0.0036675942
0000d0 9d 5e 4a 3c e4 f8 82 bc c8 51 8d bb 68 12 b6 3c
       0.012351659 -0.01598782 -0.0043127276 0.022225574
0000e0 fb 93 da bb 0c 8d da 3b c5 2a bd bb f2 85 60 3c
       -0.0066704727 0.006669646 -0.005772921 0.01370381
0000f0 f8 ea 44 bc 07 6b 74 bc b1 32 46 bb be 21 5d bb
       -0.012018912 -0.014918095 -0.0030242617 -0.0033742036
000100 cf aa b8 3b 63 d9 29 3c 5d b0 10 3b 70 c6 31 bc
       0.0056355963 0.01036677 0.0022077777 -0.010850534
000110 dd f1 40 3c b5 2e 8f 3c ca 75 58 bc 43 84 91 bc
       0.011776415 0.017478326 -0.013211677 -0.017763263
000120 7f f0 5b 3c 36 5c ce 3c 88 37 6f 3b b8 2a 21 3c
       0.013424038 0.025190454 0.0036501605 0.009836845
000130 91 b1 98 bc 50 93 da 3a 6e ce 23 bd 97 00 05 3c
       -0.018639358 0.0016675983 -0.03999179 0.008117816
000140 44 bd cd b9 e8 54 01 bc a8 d7 85 3c e5 72 8f bc
       -0.0003924166 -0.007893778 0.016338184 -0.01751084
000150 66 93 f5 3b 44 64 17 bc 4d 1a f9 3b 1e 0e 20 3c
       0.007494378 -0.009240214 0.0076020123 0.009768991
000160 c6 80 44 bc ff 65 5f bb 4a 94 35 3b 7d 96 8a 3c
       -0.011993593 -0.0034087894 0.0027706795 0.016917462
000170 7d a0 2d 3c a2 07 05 bc 8a b4 d8 bc fc f4 14 bd
       0.010597345 -0.008119496 -0.026453275 -0.036366448
000180 34 2f 1e 3c 83 7c 91 3b 98 a5 8c 3b 3d 0c 60 3b
       0.009654809 0.004439892 0.0042922013 0.0034186982
000190 84 f4 5e bc ed fb 97 bb be b2 4c bc 36 17 3d 3b
       -0.013608102 -0.004638186 -0.012493787 0.0028852946
0001a0 61 75 01 3c b1 4c 86 3c ba b3 80 bc 85 4b 73 3b
       0.0079015205 0.016393991 -0.0157107 0.003712387
0001b0 56 e8 27 3c bc 9d e9 b8 9f 72 22 bb 72 f1 17 bc
       0.010248264 -0.00011139686 -0.0024787558 -0.009273874
0001c0 28 e8 ca bc d9 49 36 bd 15 0c 52 bc 30 1c 4d bb
       -0.024768904 -0.04450402 -0.012820263 -0.0031297319
0001d0 f5 b2 37 bc b9 d9 98 bc 3c da 84 3c ed a9 56 3c
       -0.0112121 -0.018658506 0.016217344 0.013102037
0001e0 f6 d2 b9 bc a6 2c 28 bb 1c 6b cc bb 4a 72 3a 3c
       -0.022683602 -0.0025661378 -0.0062383544 0.011379788
0001f0 a5 74 0b 3c 59 55 a2 3a a0 59 5e bb 47 6a d7 bb
       0.008511697 0.0012385055 -0.0033927932 -0.0065739485

bn2.running_mean f4 [128]
000000 85 c4 0a 3f 38 81 15 be 08 ed b5 be 64 dd b4 3e
       0.54206115 -0.14600074 -0.35532403 0.35325158
000010 9f e7 61 3e c4 7c 97 bb e4 cc 4b bf e8 27 ca be
       0.22061013 -0.0046230275 -0.79609513 -0.3948357
000020 88 64 0a be 00 bb ed be aa b3 23 3f 6c 9f d2 3e
       -0.13514912 -0.46431732 0.6394602 0.41137254
000030 06 ba 3c bf 32 b6 cf 3a 8b a9 66 3f 15 2c 87 3e
       -0.7372135 0.0015847145 0.9010245 0.2640082
000040 ce 38 e0 be f3 b4 f2 3b f7 8f 06 bf a0 74 ea be
       -0.4379334 0.0074068247 -0.5256342 -0.45792103
000050 80 7e 83 bf 22 f0 34 bf 6d 64 e0 bd 28 70 1d 3f
       -1.027298 -0.70678914 -0.10956655 0.6149926
000060 69 8c df 3e e9 78 dd be 9b b9 64 bf aa bd 11 bf
       0.43661812 -0.4325631 -0.8934571 -0.5693003
000070 ea 84 b1 be fc ca d3 be 49 43 22 bf 70 56 7c 3e
       -0.34671718 -0.41365802 -0.6338392 0.24642348
000080 06 75 36 be b6 23 e4 3e 17 f4 9f 3d 97 3a cb 3e
       -0.17818078 0.44558495 0.07810228 0.39693138
000090 28 3a 9d be 31 99 bf be 94 cd 04 bf 67 b6 12 3f
       -0.30708432 -0.37421563 -0.5187619 0.57309574
0000a0 52 33 78 bc 61 64 a2 be 56 09 49 be 31 b6 2c 3e
       -0.0151489545 -0.31717208 -0.19632468 0.16866376
0000b0 6c 58 13 3f 84 c0 f9 bd 68 b2 a8 3e ef 1c 1c be
       0.57556796 -0.121949226 0.32948613 -0.15245412
0000c0 06 f4 39 3f 7a b2 7f be 27 d6 ab be f7 a5 a8 bd
       0.72637975 -0.24970427 -0.33561823 -0.0823478
0000d0 7c fe ea 3e 16 f8 d5 3d 08 52 4f 3e 6f da dd 3e
       0.4589728 0.10447709 0.20246136 0.43330714
0000e0 72 b8 96 3e 31 02 a3 be 38 d2 4b 3e c3 a6 ad 3e
       0.29437596 -0.3183761 0.19904411 0.33916292
0000f0 e0 6b d7 be e2 25 b1 3e ad fa 76 be de 48 1f be
       -0.4207449 0.34599215 -0.24119063 -0.1555514
000100 1e 93 bb be 4c 56 21 bf 10 b5 2b bf 0a 67 12 be
       -0.3663568 -0.63022304 -0.67073154 -0.14297119
000110 d2 6c e9 3e 61 e5 d8 3c b1 15 ba bd bd 14 5f be
       0.45590836 0.026476564 -0.090861686 -0.21785255
000120 e7 c6 99 be 1e 25 44 bf 81 56 40 3d f3 1a da 3e
       -0.30034563 -0.76619136 0.046957497 0.42598686
000130 01 ab 3e 3f 67 e0 77 be 4f a9 8b 3f 46 3c da bd
       0.7447968 -0.24206696 1.0911044 -0.106560275
000140 9f e9 c1 be b8 e6 e3 bd d7 d9 e4 3e f5 1e a2 3e
       -0.3787355 -0.111279905 0.4469745 0.31664243
000150 68 61 cb be 79 d5 09 3e f2 f6 ca 3e 57 be 0c 3e
       -0.39722753 0.1346034 0.3964153 0.13744484
000160 44 4e 6d 3e f5 27 09 bf 4d 9d c7 3d 08 ec f1 be
       0.23174387 -0.53576595 0.097467996 -0.4725039
000170 2d 2a 88 be 7a e6 98 bd 21 6a db be 7e 7a d5 3e
       -0.26594678 -0.07465835 -0.42854407 0.41695017
000180 7d 1f 0d bf 75 be e1 bc ca ac 00 bf 0b 0d b7 3d
       -0.5512617 -0.027556637 -0.50263655 0.089380346
000190 94 52 e6 bb 65 d9 0f bf c2 a5 3f be 0f e8 b0 3e
       -0.007028887 -0.5619109 -0.18715575 0.34552047
0001a0 c4 93 65 3f d3 7c a5 be 46 7e 26 3e 79 be 22 bf
       0.896786 -0.32321796 0.16259107 -0.6357189
0001b0 d4 18 13 3e 08 b5 00 3d 67 89 37 be 92 6c 92 bd
       0.1436494 0.031422645 -0.17923509 -0.071496144
0001c0 6f 67 31 3f 85 14 6d 3e cc 1e d8 3e b0 9a af be
       0.6929845 0.23152359 0.42210996 -0.34297705
0001d0 90 df a3 3e 11 b1 62 3e 41 fa 93 3d 5e e3 a4 bd
       0.32006502 0.22137858 0.072254665 -0.08051179
0001e0 27 c0 fd 3d d5 52 28 3d 19 f2 18 bf b9 d8 7c be
       0.12390166 0.04109462 -0.5974441 -0.24692048
0001f0 ac a0 0b bf b6 2c c8 bd 48 fb 8d 3e d7 68 3b bc
       -0.5454204 -0.09774153 0.27730775 -0.01143857

bn2.running_var f4 [128]
000000 61 09 3b 3f 87 94 d1 3e 05 9f b9 3e 1b ea 1b 3f
       0.73061186 0.4093363 0.36254135 0.6090409
000010 d3 9c 89 3e e1 7c f6 3e 0c 34 82 3f 5c c9 16 3f
       0.2687746 0.4814215 1.0172133 0.58901
000020 c0 b2 db 3e 7c 80 5b 3f cb 23 5f 3f 5e cc 34 3f
       0.42909813 0.85742927 0.8716399 0.7062434
000030 17 c5 a3 3f b9 99 4e 3f 46 41 18 3f 53 13 87 3e
       1.2794522 0.8070331 0.594746 0.2638193
000040 1e 5b 7d 3f 29 43 90 3e 29 ae 92 3f d7 93 ac 3f
       0.9896716 0.2817624 1.14594 1.3482617
000050 61 a6 33 3f c0 4d 48 3f e1 7f 6b 3f bb 1d 2a 3f
       0.7017575 0.7824364 0.91992 0.66451615
000060 eb a8 57 3e 97 9e 87 3f c8 96 35 3f cb 6e 64 3f
       0.21060531 1.0595273 0.709332 0.89231557
000070 2e 03 71 3e d1 5a 38 3f bd ef f2 3e 31 1d 06 3f
       0.23536369 0.72013575 0.4744853 0.5238829
000080 60 2f 25 3f 88 dd 4e 3e 61 9f 99 3f 77 6b f6 3e
       0.64525414 0.20201695 1.2001764 0.48128864
000090 e1 36 c8 3e c7 9a fc 3f 92 2c 16 3f 22 af 9c 3e
       0.3910437 1.9734734 0.5866176 0.30602366
0000a0 b2 e9 37 3f 7a 8b 93 3f 12 ad 17 3f ae b3 34 3f
       0.71840966 1.152694 0.5924846 0.7058667
0000b0 b6 49 32 3f 26 c8 3c 3f 79 36 d0 3e 1f 4d 25 3f
       0.69643724 0.737429 0.4066656 0.645708
0000c0 6a c9 8e 3f aa de f8 3e 6f e2 22 3f b2 f5 1a 3f
       1.1155217 0.4860738 0.6362676 0.6053115
0000d0 f4 aa 70 3f e9 c2 80 3e 0e 47 ab 3e 81 92 24 3f
       0.94010854 0.25148705 0.33452648 0.6428605
0000e0 20 e1 f0 3e 52 b7 60 3f f1 46 89 3e 24 f7 4e 3f
       0.47046757 0.87779725 0.26811936 0.80845857
0000f0 3b 17 a6 3f 85 3a 53 3f 8d 0b 1e 3f f8 d7 ad 3f
       1.2975839 0.8251117 0.61736375 1.3581533
000100 ef 3d b1 3f b6 30 1c 3f d2 1c d3 3f c7 42 c7 3f
       1.3847026 0.61011827 1.649317 1.5567254
000110 69 b0 7c 3f 49 69 1a 3f ec 2b 04 3e 38 ac 77 3e
       0.9870668 0.603169 0.1290738 0.2418679
000120 64 f2 1f 3f 35 ef 63 3f cd 9a 1e 3f 8c 8c cf 3e
       0.62479234 0.89036876 0.6195496 0.40536916
000130 95 ed 38 3f 72 d2 3d 3f e7 6d 0c 3f ee 86 dc 3e
       0.7223752 0.7414924 0.548552 0.43071693
000140 b1 af 13 3f 3b 1b 43 3f 3c f3 76 3f 9e 7e a3 3e
       0.5768996 0.76213425 0.96464896 0.3193254
000150 fc 5e 99 3f 1d 56 4a 3f 53 8e 02 3f 8a ec 97 3f
       1.1982112 0.7903765 0.5099842 1.1869061
000160 29 e8 2c 3f 1a c4 b8 3e b6 92 6f 3f da 7f 8c 3f
       0.6754175 0.36087114 0.9358324 1.0976517
000170 95 1a 13 3e 41 b8 6e 3f b6 aa 20 3f fb c6 df 3e
       0.14365609 0.932499 0.62760484 0.43706498
000180 63 b6 57 3f bf cc 85 3f 82 02 4f 3f 0a dc 81 3f
       0.84262675 1.0453109 0.808632 1.0145276
000190 04 cf 68 3e 31 05 05 3f c0 6d b9 3e 4a fe 4c 3f
       0.2273522 0.51961046 0.36216545 0.80075514
0001a0 86 43 69 3e 6c 98 45 3f e9 11 e6 3e 16 cb 5f 3f
       0.22779664 0.771857 0.4493554 0.8741926
0001b0 69 87 54 3f 3c d8 7e 3f 9e 7d 05 3f 45 e6 79 3d
       0.8301912 0.995487 0.521448 0.061010618
0001c0 a8 5e 89 3e 91 29 55 3e 18 26 dc 3e cd 31 39 3f
       0.2683003 0.20816638 0.42997813 0.72341615
0001d0 d4 ec 2a 3e 3e b5 bf 3e a6 19 3b 3f db 8e bc 3f
       0.16691905 0.37442964 0.7308601 1.4731096
0001e0 36 8b 49 3f d0 89 68 3f 8b 1e 2d 3f 88 d0 ac 3f
       0.78728044 0.90835285 0.6762473 1.3501139
0001f0 3d a0 7a 3f fe 16 b2 3f d7 03 08 3f 7f 9a 5c 3e
       0.97900754 1.3913267 0.5313086 0.2154331

conv3.weight f4 [256, 128, 3]
000000 3a a3 03 bd dc c1 cb 39 99 f2 ea 3c db 2e 3f 3d
       -0.032138087 0.00038863614 0.028680133 0.046675544
000010 09 3a 2e bd c5 46 98 3c 76 73 74 bd 61 98 85 bc
       -0.042535815 0.018588433 -0.059680425 -0.016308011
000020 56 b1 23 bd 66 ba cd 39 9b b0 c9 3c 3e 3f 1d 3d
       -0.039964043 0.00039239525 0.024620345 0.03839039
000030 d7 6e 06 bb a3 a6 a1 3c c3 da 03 bd 66 92 32 3d
       -0.0020512843 0.019732779 -0.03219105 0.043596648
000040 7f b4 50 3d 00 1d 18 3d f2 59 42 bc 26 84 80 bb
       0.050953384 0.03713703 -0.011862265 -0.0039220033
000050 b3 ce fe bc 5b e3 d4 3c 1a c3 14 bc cd 0b 2d 3d
       -0.031104421 0.025987318 -0.009079719 0.042247582
000060 71 23 05 3d b2 e0 48 3b f4 2c 44 3d 69 f4 04 3d
       0.032504503 0.0030651507 0.047894433 0.03245965
000070 58 fe 24 3d 4b 8c db 3c dd b9 c7 3c 84 a1 73 bc
       0.040281624 0.026800295 0.024380619 -0.014870051
000080 62 5a 61 bd f8 40 1f bd 4d df 17 bd 40 51 27 bd
       -0.055017836 -0.03888032 -0.03707819 -0.04084897
000090 67 bf ea 3c d7 0c bd bc 7d d9 f7 bc bf b5 72 bd
       0.02865572 -0.023077412 -0.030255074 -0.059255358
0000a0 2b 31 f9 3c d1 11 40 bd b6 82 91 3d da 00 53 bd
       0.030418953 -0.04689199 0.07105009 -0.051514484
0000b0 2d 93 23 bd 7a 99 36 bd ca f7 4b bd 67 65 82 bd
       -0.03993528 -0.04457996 -0.049796857 -0.06366997
0000c0 3e d5 d9 3c a7 56 d4 bc de 86 f2 3c 3e e1 97 3d
       0.02659094 -0.025920225 0.029605325 0.074160084
0000d0 9b 2b fb 3b f5 2c 3f 3d 30 a9 67 3c d4 4c 1c bc
       0.0076651103 0.046673734 0.014139459 -0.009539802
0000e0 91 53 95 3c ca 57 11 3d 2b ab ea 3c 44 ab 71 bd
       0.018228324 0.035484113 0.028646072 -0.059001222
0000f0 b3 cb 3d bc 4f 4e 20 3c a1 78 2c bc a1 25 1e bd
       -0.01158421 0.009784295 -0.010526807 -0.038610104
000100 c0 ba 47 3c 91 c1 75 bd f6 01 6a 3d 0c 32 75 3d
       0.012190521 -0.059999052 0.057130776 0.05986218
000110 11 b2 85 3b 2f a9 d3 3c f0 04 fb bc 7a 9f dc 3b
       0.004080065 0.025837509 -0.030642003 0.0067328783
000120 89 f1 0b 3c 05 64 cc bc b3 03 22 3d 92 9c 94 3c
       0.008541473 -0.024950037 0.03955431 0.018141065
000130 d4 03 16 3c cb f4 59 bd 4b 44 1e 3c 82 2a 84 bc
       0.009156186 -0.05321197 0.009659837 -0.01613355
000140 22 61 14 3d 50 76 36 3d 16 f3 e0 bb c6 f5 3e 3d
       0.036225446 0.044546425 -0.0068649156 0.046621107
000150 db 47 67 3c 5f 5e c8 3c f0 37 52 3c f4 7b 3d 3d
       0.014116253 0.024459062 0.012830719 0.04626079
000160 68 04 07 3d e1 45 06 bd 52 85 6c bc 1f 66 b4 bc
       0.032963187 -0.032781485 -0.014436083 -0.022021351
000170 8f fd 42 bd 8a f7 e9 bc d6 3f 9f bc bb 89 ac bc
       -0.047605094 -0.028560419 -0.019439619 -0.021061769
000180 f9 63 a2 3c 4e 9f 2a 3d d9 0a 82 3c ea 9c 21 bd
       0.019823061 0.04165583 0.015874313 -0.039456286
000190 87 ee 62 bc dc 6c 6e 3d d4 9a 73 3c f5 03 e4 bc
       -0.013850815 0.058209285 0.014868457 -0.027833918
0001a0 12 26 73 bb ad 81 2e bd ad 48 8c bc 1e 6d 2a 3c
       -0.003710155 -0.042604137 -0.017124498 0.010401992
0001b0 88 99 0b bd 89 aa 7a 3c c8 0d 53 bc ce 21 1e 3d
       -0.034081966 0.015299448 -0.012881704 0.038606457
0001c0 10 45 01 bd bb 42 28 bd e1 e6 49 bd 2b d0 22 3c
       -0.031560004 -0.041079264 -0.04929245 0.009937326
0001d0 67 6c 3d 3a 9f b6 d0 bb 44 02 61 bd 20 0f 23 3d
       0.0007225931 -0.0063694264 -0.0549338 0.039809346
0001e0 b4 65 fa 3b d4 e5 27 3b 7f 06 33 3c 20 03 c6 3b
       0.0076415185 0.0025619166 0.010926842 0.006042853
0001f0 5f c9 28 3d e8 b7 7c 3c 26 06 8a 3a b8 7d 77 bd
       0.041207667 0.015424706 0.0010530397 -0.06042263
000200 3c 4d 0a 3d e3 ea 26 3c 5d 28 20 bd 48 c3 23 3d
       0.033765063 0.010187837 -0.039100993 0.039981157
000210 af f8 96 bc 92 9e d6 bc d0 b6 af bc 50 26 3e 3b
       -0.018429128 -0.02619866 -0.021449476 0.0029014535
000220 e0 f7 03 3a a9 95 45 3b 72 de c9 3b 61 e2 d3 3c
       0.00050341897 0.003014902 0.0061605508 0.025864782
000230 89 df a3 bc 22 b8 0d 3d a4 85 01 bd 98 61 ec 3c
       -0.02000405 0.03459943 -0.03162159 0.02885513
000240 8c 3b dc 3c fa f8 84 bc 76 29 8d 3d a6 8b d1 3c
       0.026883863 -0.016232003 0.06892674 0.025579285
000250 94 3e d9 bc a1 c5 4b 3d a4 21 31 bb f9 19 07 bd
       -0.026519097 0.04974902 -0.0027028108 -0.032983754
000260 a6 1c 13 3d f6 9f 47 bb c9 0d 95 3c bc e0 8f 3c
       0.035915993 -0.0030460334 0.01819505 0.017563216
000270 48 5c 1b bd f6 fa b5 bc f2 1a 24 bd 29 ef 27 3d
       -0.037929803 -0.022214394 -0.04006476 0.040999565
000280 97 19 e9 3c 09 67 81 3d f0 16 21 3c c7 c5 0c bc
       0.028454585 0.063184805 0.009832129 -0.008592076
000290 65 6a de bc ad 3c af 3c 47 61 42 3c 7c 7b fa 3c
       -0.027150342 0.021391237 0.011864013 0.03057646
0002a0 2a c3 b9 bc 1b 42 51 3d 2e 97 b4 bb 50 7b 21 bd
       -0.02267607 0.051088434 -0.005511186 -0.03942424
0002b0 4f ee 04 3d 92 b5 f9 b9 5d 1a 35 bd 5e 2a 1e bd
       0.03245383 -0.0004762826 -0.044214595 -0.038614623
0002c0 59 c3 08 3b f9 54 f4 3c 04 6a 10 bd 18 c7 f6 3c
       0.002086839 0.029825674 -0.035257354 0.030124232
0002d0 e3 2f 20 3d 9f 2f 61 3c 19 e6 4f 3d 94 4b b5 bc
       0.03910817 0.013744264 0.050756548 -0.022130765
0002e0 46 d2 5d 3d 34 44 f1 bc 8a d7 f7 3c 1e 4f a2 bc
       0.05415561 -0.029451467 0.030254144 -0.019813117
0002f0 31 87 8d bc 60 85 74 bd 32 23 b7 3c e5 52 b9 3c
       -0.017276378 -0.05969751 0.02235565 0.022622535
000300 1c 63 22 3d 44 68 66 3d 07 ad 8d bc 9c 58 a3 bc
       0.0396453 0.05625178 -0.01729442 -0.019939713
000310 99 94 13 bb d7 a9 c0 ba 00 59 96 3c a8 9a c9 bc
       -0.002251899 -0.0014699054 0.018352985 -0.024609879
000320 23 c7 15 bd e8 f3 13 bc 81 2c 93 bc 44 1b 1b b8
       -0.036566865 -0.00903032 -0.017965557 -3.6980273e-05
000330 00 6e 0f bc e1 76 aa 3c f3 a1 8c 3b 0e 54 b9 ba
       -0.008754253 0.020808639 0.004291767 -0.001413943
000340 85 2a 64 bd 5e 7b 04 bd fd 7f 64 bc 7c 15 62 3d
       -0.055704612 -0.032344215 -0.01394653 0.05519627
000350 23 7c 29 bc f1 60 f2 3c c4 af a5 3a fc 10 52 3c
       -0.010344538 0.02958724 0.0012640883 0.012821432
000360 9b 25 97 bc 09 64 eb bc b8 05 6d 3c 9f 38 54 3d
       -0.018450549 -0.028734224 0.0144666955 0.05181181
000370 37 01 17 bd c7 c3 f5 3b f8 a3 22 bd 1f c1 34 bd
       -0.036866393 0.007500145 -0.039707154 -0.044129487
000380 fa 54 e0 3c 63 4c 14 3d b5 a0 84 3c c1 4e 63 bc
       0.02738427 0.03620566 0.016189912 -0.013873757
000390 a2 b3 d6 3b af 91 17 bd ae b9 0e bd 4f d6 45 3c
       0.0065521756 -0.03700417 -0.034845047 0.012075021
0003a0 a7 e2 01 bd b5 85 07 bd 02 0e 71 bd 6f 19 5b bd
       -0.031710293 -0.033086497 -0.05885125 -0.053491052
0003b0 d2 e0 2d bd e7 7b e2 bc 39 d5 03 bd 9d 7a 74 3b
       -0.042450733 -0.027646972 -0.032185767 0.0037304529
0003c0 ac 34 09 3d 7c 83 12 3c 88 37 64 3c 3a 85 0a bd
       0.033497497 0.008942481 0.013929255 -0.03381846
0003d0 ed 94 1f bd 3a e3 72 3c c4 5a 53 bc 35 49 45 bd
       -0.038960386 0.014824683 -0.012900058 -0.04816552
0003e0 30 67 37 bd 24 7f 3c 3d bd 4b 70 3b 34 67 6e 3c
       -0.04477614 0.04601969 0.0036666237 0.014550973
0003f0 86 8a 46 3d 22 31 00 3d 54 b3 3a bb 01 c1 19 3d
       0.04847195 0.031296857 -0.0028488236 0.03753758
